data.pth (torch, 4991 bytes, 6 tensors)

l1.weight f4 [8, 54]
0	0x3f39c325	0.7256339
1	0x3f19890f	0.5997476
2	0x3c8c7642	0.017146233
3	0x3d95b464	0.073097974
4	0xbdb353d5	-0.08756224
5	0x3f2c49da	0.6730019
6	0x3ea123e5	0.31472698
7	0xbcb29479	-0.021799313
8	0xbe332606	-0.17494974
9	0xbcd0edd3	-0.025504028
10	0x3ab617ce	0.0013892592
11	0xbea2a45c	-0.3176602
12	0xbdfc68ed	-0.123247005
13	0xbe876fbf	-0.26452443
14	0x3e82598c	0.25458944
15	0xbe4a1c94	-0.19737464
16	0xbd8b658e	-0.068064794
17	0x3f4a1473	0.78937453
18	0xbdb6e1a4	-0.08929756
19	0xbe4d83e9	-0.20069851
20	0x3f163d59	0.5868736
21	0xbe62cf4e	-0.22149393
22	0xbe89625a	-0.2683285
23	0xbe089cb3	-0.13341026
24	0x3e243cbd	0.16038795
25	0xbb8f6989	-0.0043765944
26	0xbe5f12c8	-0.21784508
27	0x3ecd263c	0.40068233
28	0x3e15fafe	0.14646527
29	0x3ecdb9ef	0.4018092
30	0x3e37fd63	0.17967753
31	0xbe29529c	-0.16535419
32	0x3ee6aa3f	0.45051762
33	0xbe179ff4	-0.14807111
34	0x3ed5e3a8	0.4177525
35	0xbe35ab6e	-0.17741176
36	0x3d05fc0b	0.03271107
37	0xbec22f74	-0.3792683
38	0x3e1c0ae3	0.15238528
39	0x3e05e36c	0.13075036
40	0x3eacc859	0.33746603
41	0xbebcd2de	-0.3687963
42	0xbe9e5230	-0.3092208
43	0x3ee8b965	0.45453945
44	0xbd7642f0	-0.06012243
45	0x3ec853ac	0.39126337
46	0x3f6ade56	0.9174551
47	0x3f1b5c13	0.6068737
48	0x3e05e284	0.1307469
49	0xbe460935	-0.1933945
50	0xbe8c5949	-0.2741187
51	0xbe11d684	-0.14241987
52	0x3e5f6ea7	0.21819554
53	0x3e7892dc	0.24274772
54	0xbe2e1ca6	-0.17003116
55	0x3f048aa4	0.5177405
56	0xbe15f2cf	-0.14643405
57	0x3ddf78ad	0.10911689
58	0x3d59095d	0.052987445
59	0xbe8a68ae	-0.2703299
60	0xbe8315ae	-0.25602478
61	0xbe697c0e	-0.2280123
62	0xbdc8c0b8	-0.09802383
63	0xbeabda55	-0.33565012
64	0x3c735e02	0.014853956
65	0x3ed6222d	0.4182295
66	0x3f144259	0.5791374
67	0x3eb69955	0.35663858
68	0x3f1e80ec	0.6191547
69	0x3e6d89f9	0.23197164
70	0x3d5ff4e0	0.05467689
71	0xbe95bca1	-0.29245475
72	0x3f20cace	0.62809455
73	0xb9a8ad67	-0.00032172652
74	0xbdc7621f	-0.09735512
75	0x3da4696d	0.08027921
76	0x3df2e047	0.11859184
77	0x3e1545cb	0.14577405
78	0x3e366e3a	0.17815486
79	0x3e6aa327	0.229138
80	0x3f169eec	0.58836246
81	0x3f5838ad	0.8446148
82	0x3ec3b319	0.38222578
83	0x3f0cb7fc	0.5496824
84	0xbdd8ed7e	-0.10592173
85	0x3ed9f78d	0.4257168
86	0xbe13cfe1	-0.14434768
87	0xbe939b38	-0.2882936
88	0x3f484683	0.7823259
89	0x3e96dfee	0.2946772
90	0x3f02bbe3	0.5106794
91	0x3ca84ad4	0.020543493
92	0xbe9070d5	-0.28211084
93	0xbd868abf	-0.065694325
94	0xbe9c37dd	-0.3051137
95	0x3f4b2616	0.7935499
96	0x3e85642c	0.26052988
97	0x3efba162	0.49146563
98	0x3ec0b29d	0.3763627
99	0x3f125b18	0.5717025
100	0xbefe1e68	-0.49632573
101	0xbe31a116	-0.17346606
102	0x3ea23f62	0.31688982
103	0x3f37eb3f	0.7184333
104	0x3eda5543	0.42643175
105	0x3f0b808a	0.5449301
106	0xbd8bb3f9	-0.068214364
107	0x3dfc6582	0.123240486
108	0x3f2373cc	0.63848567
109	0x3efc8caa	0.49326068
110	0x3f1c5ab9	0.6107593
111	0xbd72e916	-0.05930432
112	0x3d82aef6	0.063810274
113	0xbdaea01c	-0.08526632
114	0x3b7d2d40	0.0038631707
115	0x3f0a4b3d	0.54021055
116	0x3f4a5132	0.79030144
117	0x3f065f14	0.5248883
118	0xbe5760a9	-0.21032967
119	0xbdd22099	-0.10260124
120	0x3ec68c19	0.3877876
121	0xbe1f2718	-0.15542257
122	0x3ed7be54	0.42137396
123	0xbd67453e	-0.05646252
124	0xbe664fa2	-0.22491315
125	0xbe821469	-0.25406197
126	0xbeef1ad0	-0.46700144
127	0xbedc97c8	-0.4308455
128	0x3ebb99b7	0.36640713
129	0xbedbe3be	-0.4294719
130	0xbed42e9a	-0.41441804
131	0xbf18f48a	-0.59748137
132	0xbe48c822	-0.19607595
133	0xbdde6e28	-0.108608544
134	0xbeb045aa	-0.3442815
135	0x3eb61b6a	0.3556779
136	0x3cc3108c	0.023811601
137	0x3e97562f	0.2955794
138	0xbe6ca0f1	-0.2310827
139	0xbe3cf726	-0.18453655
140	0x3ec1ed7a	0.37876493
141	0x3f0d2319	0.5513168
142	0x3f14e140	0.58156204
143	0xbe6b6b2e	-0.22990105
144	0x3d93dbf0	0.07219684
145	0x3f44455b	0.7666833
146	0xbda79728	-0.08183128
147	0xbdc15a58	-0.0944106
148	0xbd448274	-0.047975972
149	0xbf0e84f3	-0.55671614
150	0xbda6621b	-0.08124181
151	0x3f057c0e	0.5214242
152	0x3f1202e2	0.5703565
153	0x3f12def7	0.5737147
154	0x3f92e1bc	1.1475139
155	0x3f0388fa	0.51380885
156	0xbddc24a9	-0.1074918
157	0xbf198440	-0.5996742
158	0xbe751720	-0.23934603
159	0xbec5cee4	-0.38634408
160	0xbe0a5ecb	-0.13512723
161	0x3f1c4cd9	0.6105476
162	0xbe657a35	-0.224099
163	0x3eadb604	0.3392793
164	0xbefa253f	-0.48856542
165	0x3f051d58	0.519979
166	0x3ec29567	0.3800461
167	0x3c7b59ab	0.015341203
168	0xbe726159	-0.23669948
169	0xbeebe3c6	-0.46072215
170	0xbecc5959	-0.39911917
171	0xbe83a77d	-0.2571372
172	0x3e94295a	0.289378
173	0xbc3a6e7d	-0.0113788815
174	0x3e8e341e	0.27774137
175	0xbd69cd9d	-0.057080854
176	0x3dd68150	0.10473883
177	0x3e6a0666	0.22854003
178	0x3ec5d52f	0.3863921
179	0x3ca9bc1f	0.020719586
180	0x3f01f0ef	0.5075826
181	0x3f1264f3	0.57185286
182	0xbe43b8ac	-0.19113415
183	0x3f0596f0	0.5218344
184	0x3eb9d38b	0.36294207
185	0x3f1f2814	0.6217053
186	0x3d5edd99	0.05441055
187	0x3e8c9313	0.2745596
188	0x3f3e2e2a	0.7428919
189	0x3e54cfb4	0.20782357
190	0x3efb364e	0.4906487
191	0x3e7f673e	0.24941728
192	0xbdaa950f	-0.08329212
193	0x3e085e14	0.13317138
194	0x3d6e9921	0.058251504
195	0xbe8af58a	-0.27140456
196	0x3ef82b75	0.48470655
197	0xbbc10593	-0.005890557
198	0x3f004a13	0.5011303
199	0xbf02b068	-0.51050425
200	0xbd6d568a	-0.05794386
201	0xbe77dda7	-0.24205647
202	0xbdce62c5	-0.100774325
203	0x3f48474e	0.782338
204	0xbcc4ec3a	-0.024038423
205	0x3e796b01	0.24357225
206	0xbe83dd91	-0.2575498
207	0x3eb293ec	0.3487848
208	0xbf19d560	-0.6009121
209	0xbe0e1732	-0.13876036
210	0x3f098227	0.5371422
211	0x3f616809	0.8804937
212	0x3e0f9a6c	0.14023751
213	0x3ef9e986	0.48810977
214	0xbe2c5cfd	-0.16832347
215	0x3ea07520	0.3133936
216	0xbd193c28	-0.037410885
217	0x3f33488a	0.7003256
218	0x3c9681d2	0.01837245
219	0xbe1fb98f	-0.15598129
220	0xbe7142dd	-0.23560663
221	0x3d676812	0.056495734
222	0x3ecbcf50	0.39806604
223	0xbd266787	-0.040626075
224	0x3f1284d2	0.5723392
225	0x3e183f1e	0.14867827
226	0xbddbf142	-0.10739376
227	0x3f1acd14	0.60469174
228	0x3e37f22f	0.1796348
229	0x3f38021c	0.7187822
230	0x3f096b53	0.5367939
231	0x3eab819c	0.33497322
232	0xbe12e930	-0.14346766
233	0x3e16cfee	0.14727756
234	0x3c34c0c0	0.011032283
235	0xbe8076ee	-0.25090736
236	0xbe00892e	-0.1255233
237	0xbe807817	-0.2509162
238	0xbe80994c	-0.25116956
239	0x3dad8da1	0.08474279
240	0x3f351a15	0.70742923
241	0xbd803acd	-0.06261215
242	0xbe57604c	-0.21032828
243	0x3f47d706	0.78062475
244	0x3d3f7228	0.046739727
245	0x3f19cde2	0.6007978
246	0xbd7eae6f	-0.06217807
247	0x3f0e2541	0.55525595
248	0xbe9b10b3	-0.30286178
249	0x3e5c5496	0.21516642
250	0x3f203cc2	0.6259271
251	0x3eeb102a	0.4591077
252	0xbd1c7894	-0.03820093
253	0x3ec35d55	0.38157144
254	0x3ede13a0	0.43374348
255	0x3ec4a298	0.384053

l1.bias f4 [8]
0	0x3f6dddaf	0.9291639
1	0x3efc24c0	0.49246788
2	0x3edee82f	0.43536517
3	0x3f268d34	0.6505921
4	0x3e806190	0.25074434
5	0x3ecc59af	0.39912173
6	0x3f74655d	0.9546717
7	0x3f430c8d	0.76191026

l2.weight f4 [8, 8]
0	0xbe7a02ac	-0.24415082
1	0xbd4801ff	-0.04883003
2	0xbd7878c0	-0.06066203
3	0x3dbf07f5	0.093276896
4	0xbc8fbc96	-0.01754598
5	0xbe37ecac	-0.17961377
6	0xbe23d5f9	-0.15999593
7	0xbe67fb9f	-0.2265458
8	0x3fc926f7	1.5715016
9	0xbf2f28af	-0.68421453
10	0x3e9bda2d	0.30439892
11	0x3c6ba048	0.014381476
12	0xbf660970	-0.8985815
13	0xbf349209	-0.7053533
14	0x3fb7cb57	1.4358929
15	0x3f9b4cae	1.2132776
16	0xbf7fae9d	-0.99875814
17	0x3e7c4132	0.24634245
18	0xbf34f921	-0.7069264
19	0x3ea31920	0.31855106
20	0x3eb65060	0.35608196
21	0xbf675299	-0.9036041
22	0x3f41025a	0.75394213
23	0x3f86a7e9	1.0519992
24	0xbd1ccef0	-0.03828329
25	0x3df7ce9c	0.120999545
26	0xbce00d90	-0.027350217
27	0xbd952118	-0.07281703
28	0xbe942832	-0.28936917
29	0xbe7c99da	-0.24668065
30	0xbd831584	-0.06400588
31	0x3da0db74	0.07854357
32	0x3fa67f55	1.3007609
33	0xbe4fc210	-0.20288873
34	0x3facefa1	1.3510629
35	0xbef11bbb	-0.4709147
36	0x3ea05d86	0.31321353
37	0x3fb149d7	1.3850659
38	0xbeb4062c	-0.3516096
39	0xbec83377	-0.39101765
40	0x3dcf3587	0.101176314
41	0x3f694afd	0.9113005
42	0x3da3c134	0.07995835
43	0x3f944a8a	1.1585248
44	0xbf835d2c	-1.0262809
45	0xbfb836f1	-1.4391767
46	0x3e24316d	0.1603448
47	0x3d9ba2d3	0.07599416
48	0x3f6dd091	0.9289637
49	0x3f75801f	0.9589862
50	0x3f73842c	0.95123553
51	0xbef394ec	-0.47574556
52	0x3f76056d	0.9610203
53	0x3f145a76	0.5795053
54	0xbf5454f8	-0.8294215
55	0x3f2811f8	0.6565242
56	0xbd635f0e	-0.055510573
57	0x3facb0e3	1.3491482
58	0xbf30ec67	-0.6911072
59	0x3fa170b8	1.2612524
60	0xbca1f751	-0.01977125
61	0x3eecfd45	0.4628698
62	0x3fa1b3c4	1.2632985
63	0x3fa65f61	1.2997857

l2.bias f4 [8]
0	0xbddd55d1	-0.10807384
1	0x3f3f9987	0.7484364
2	0xbcefbbb5	-0.02926431
3	0xbddd9508	-0.10819441
4	0x3f40b917	0.75282425
5	0x3f27f01f	0.6560077
6	0xbe8b9fc0	-0.27270317
7	0xbe8261c5	-0.25465217

l3.weight f4 [7, 8]
0	0xbe6fb01a	-0.23407021
1	0xbf8b289c	-1.0871768
2	0x3eed050a	0.46292907
3	0xbe534321	-0.20631076
4	0xbf606d2d	-0.8766659
5	0xbf877bae	-1.0584619
6	0x3eb455b2	0.3522163
7	0x3e99ac11	0.3001409
8	0x3cfe8a9f	0.031071959
9	0xbee77018	-0.45202708
10	0xbf7c7821	-0.986208
11	0x3eadfcb5	0.33981863
12	0x3dd2ae1e	0.102871165
13	0xbf78a7e9	-0.9713121
14	0x3ef8cd49	0.4859412
15	0xbd88fd7c	-0.06688973
16	0xbe312486	-0.17299089
17	0x3f12a999	0.57290035
18	0xbfb73460	-1.4312859
19	0x3e056878	0.13028133
20	0x3e10553a	0.14095011
21	0xbff727f2	-1.9309065
22	0xbf2a6da3	-0.6657354
23	0x3e6d9cb2	0.23204306
24	0x3da2eb2a	0.0795501
25	0x3f0865a1	0.53280073
26	0x3e5dcdb8	0.21660507
27	0xbea5ea7d	-0.32405463
28	0xbf3201b9	-0.6953388
29	0x3e05251f	0.13002442
30	0xbfc9407d	-1.5722805
31	0xbddf3220	-0.108982325
32	0xbe64c46e	-0.22340557
33	0xbfdca593	-1.7238029
34	0xbe41196a	-0.18857351
35	0xbe829f86	-0.25512332
36	0xbf172f07	-0.59056133
37	0x3f02080b	0.5079352
38	0xbf5e3a38	-0.86807585
39	0x3ed509b4	0.41608965
40	0xbe4edbad	-0.20200987
41	0xbfb007a1	-1.3752328
42	0xbec9c147	-0.3940527
43	0xbe0f53f5	-0.13996871
44	0x3f7608b1	0.9610701
45	0xbf3a3c6d	-0.7274845
46	0x3f0bad30	0.5456114
47	0xbfd6569e	-1.6745183
48	0x3e91ea83	0.2849923
49	0x3f495a0a	0.78653014
50	0xbf7457e6	-0.9544662
51	0x3d9c26d4	0.076245934
52	0x3eba9261	0.36439803
53	0xbe35f574	-0.17769414
54	0x3dfb6a7d	0.122761704
55	0xbfdff2dd	-1.7495991

l3.bias f4 [7]
0	0xbe176152	-0.14783219
1	0xbed49896	-0.41522664
2	0x3e9509b3	0.29108962
3	0x3e0485e7	0.12941705
4	0x3dabf196	0.08395688
5	0x3f21122a	0.6291834
6	0xbdfd61ab	-0.12372144
