data.pth (torch, 17535 bytes, 6 tensors)

l1.weight f4 [8, 189]
000000 ba 52 08 40 0b 11 4e 40 63 05 04 be bd c1 f0 bf
       2.1300492 3.2197902 -0.1289268 -1.8809124
000010 52 ed a7 40 da 87 87 3f 63 c5 e0 3f 0b d2 a7 3f
       5.24772 1.0588334 1.7560238 1.3110975
000020 79 e7 ec be 04 56 b1 40 78 5c 01 c0 1e 96 a5 bd
       -0.4627035 5.54175 -2.0212688 -0.08085273
000030 77 0d 92 40 47 7e fc 3c bd 7d 0b bf 0b 4d fa 3f
       4.5641437 0.030821932 -0.54488736 1.9554762
000040 5d 59 8a 40 b5 89 2f bf e4 69 85 3f 80 6a 0c bf
       4.3234086 -0.685695 1.042294 -0.54850006
000050 86 21 b4 bd 3a 89 1c 40 f2 ec 3c bf 36 34 4b 3e
       -0.087954566 2.4458756 -0.7379905 0.19844136
000060 ed 21 0a 40 0f d9 d9 bf 81 ba 5e 40 51 65 f4 3f
       2.1583207 -1.7019366 3.4801333 1.9093419
000070 aa b4 3c 40 5a 08 a3 40 2b 18 ba 3e 83 d7 e8 3f
       2.9485269 5.0947695 0.36346564 1.8190769
000080 b5 bb 26 bf 4c d7 c5 3e cc 19 91 40 97 1e d1 3f
       -0.6513017 0.3864082 4.534399 1.633746
000090 15 70 b5 3e 2b 02 54 bf de cd 6a bf ce 68 4a bf
       0.35437074 -0.8281581 -0.9172038 -0.7906617
0000a0 e9 04 1f 40 8e f1 20 40 1b 0d 8c 3e 1b b6 9f 3f
       2.4846747 2.5147433 0.2735375 1.2477449
0000b0 64 13 91 40 3e e3 8b 3f 9d 2a ef 3f e8 99 d0 40
       4.533617 1.0928724 1.868488 6.5187874
0000c0 c6 91 2a 40 31 fb 32 bf 38 5e 8f 3f ca 6d 15 40
       2.6651473 -0.6991454 1.1200628 2.334826
0000d0 09 df 01 be f9 b8 08 be 09 3d 67 be 4f 81 f0 3c
       -0.12682737 -0.13351811 -0.22581877 0.029358534
0000e0 55 a3 ee 3f 4c b7 15 40 4e 17 03 40 ec 55 1a 40
       1.8643595 2.3393126 2.0482974 2.4114943
0000f0 d5 ec d2 40 bd 8a 06 40 a1 fa c3 3e d3 c3 95 be
       6.59141 2.102218 0.38277152 -0.29250965
000100 35 65 0a bf 53 45 00 40 5b f7 b7 3e 86 0e 1f 3f
       -0.5406068 2.0042312 0.35930905 0.62131536
000110 6c e6 03 40 83 c0 0a bf f6 ab 0b bf 8e 49 4d 40
       2.0609388 -0.542 -0.54559267 3.2076144
000120 ee 0e 8e 3f e7 08 57 3e d7 2a 31 bf 7b 46 2a be
       1.1098306 0.2099949 -0.69205993 -0.16628449
000130 8e 0f 8f 40 59 9d 57 3f b3 d5 c9 3f dd e1 11 3e
       4.470649 0.8422447 1.5768341 0.14246316
000140 05 83 d3 3f 38 74 6a bf 8e a6 d4 bd e1 df 71 40
       1.6524359 -0.91583586 -0.1038333 3.7792895
000150 fd 63 56 3e c3 99 77 40 52 3a bd be 5b b2 90 40
       0.2093658 3.8687599 -0.36958557 4.521772
000160 80 56 a6 40 f9 d2 3a 3e d3 12 2b bf 11 7f 24 bf
       5.198059 0.18244542 -0.668256 -0.6425639
000170 4d 72 b7 bd fa 24 99 40 dd 20 16 bf 76 6c 0b bf
       -0.08957348 4.7857637 -0.58643895 -0.54462373
000180 b8 e6 e4 3f 35 ae 05 40 51 93 c5 3e c6 8b a6 be
       1.788291 2.0887578 0.38588956 -0.32528514
000190 48 1a e6 3f 04 d0 d9 3f 50 29 a8 40 82 f1 46 3f
       1.797677 1.7016606 5.255043 0.7771226
0001a0 a6 ea 82 be 6e 85 0a bf e9 ea 0a bf c3 05 34 bf
       -0.25569648 -0.5410985 -0.54264694 -0.7032129
0001b0 02 0a af 40 e9 5c a5 bf ed 0a cd 3f 7c 1d 0b c0
       5.4699717 -1.2918979 1.6018959 -2.1736746
0001c0 c9 26 a3 3e 6f 34 80 be b8 2b 93 3e 54 21 58 40
       0.31865528 -0.25040004 0.28744292 3.3770342
0001d0 4c 8c 98 bd c4 00 71 40 45 89 73 bf b3 cf 11 c0
       -0.074486345 3.7656717 -0.9513133 -2.278302
0001e0 35 95 10 40 2a c0 6d bf 50 02 52 40 1d 71 bc 3f
       2.2591069 -0.92871344 3.2813911 1.472202
0001f0 62 9d 9d 3e b8 b4 87 bf 81 9e a1 3f cc 0a fc 3f
       0.30784136 -1.0602026 1.2626497 1.9690795
000200 44 87 2f bd ed 35 d4 bf 2b ac f9 3e c1 79 22 be
       -0.04285361 -1.6578957 0.48764166 -0.15866758
000210 e9 1c 79 3f a8 37 a8 40 3f 67 cb bf d8 18 52 3f
       0.9730974 5.256794 -1.5890883 0.8206916
000220 e1 41 0c 40 81 4e 3e bb 9e 40 66 bf 5c 40 1f c0
       2.191521 -0.0029038491 -0.8994235 -2.4883032
000230 86 da 95 bf 42 38 87 40 ec 3c 3b bf 9c f5 e2 3f
       -1.1707313 4.2256174 -0.73139834 1.7731204
000240 a0 f9 a6 40 02 2f 13 c0 b0 ed 07 bf 73 5d 2e 40
       5.217972 -2.2997441 -0.5309706 2.7244537
000250 27 c4 86 3f 5f eb b5 3f 08 85 8d 3f 23 7e c5 3f
       1.0528611 1.4212455 1.1056223 1.5429119
000260 20 84 05 40 f6 04 dc 3f da 0f 18 c0 cb a9 30 40
       2.0861893 1.7189014 -2.3759675 2.7603633
000270 e6 2d 74 3f 7f c2 ec 40 0d 23 51 40 18 d3 00 40
       0.95382535 7.398742 3.2677643 2.0128841
000280 e0 6d 61 3f 42 20 d1 40 8b d2 5b 3f bd 3d 6c bf
       0.8805828 6.5351877 0.8586814 -0.92281705
000290 4e 9b 31 3e 58 21 06 40 3b 1e b2 3e f1 30 f4 3f
       0.173444 2.0957851 0.3478869 1.9077436
0002a0 25 ab b6 3f b8 75 20 40 7e 51 80 3f 0d 56 93 40
       1.4270979 2.507185 1.002487 4.6042542
0002b0 0e 84 16 40 10 9e a1 40 be e8 eb 3f 0b ad 3e 3f
       2.35181 5.0505447 1.8430402 0.7448279
0002c0 7a e5 e3 3f 78 b4 23 40 2f be e6 3f 15 fc 6d 3f
       1.7804406 2.55789 1.802679 0.9296277
0002d0 48 c2 62 bf 0b 87 36 3e e9 50 56 3e 74 0b 71 3e
       -0.885777 0.17824952 0.20929302 0.23539525
0002e0 06 39 ed bd 34 4c 4d be b3 d6 8b be c2 b0 07 3e
       -0.11583142 -0.200486 -0.2731224 0.13251022
0002f0 b1 84 b7 bd ab 60 8b 40 1f 3d 2e bf 6e 4f 22 bf
       -0.08960856 4.3555503 -0.68062013 -0.6340245
000300 de 3c a8 ba e3 6c de 3d 2a 17 36 40 fe dc 32 3f
       -0.0012835523 0.10860612 2.8451638 0.6986846
000310 5d 34 24 40 c8 a5 f8 3e 6f 50 e6 3f 7d 03 30 40
       2.565696 0.4856398 1.7993296 2.750213
000320 11 01 a1 3f 6e 36 a7 3f 87 85 a2 3f 5a 23 07 bf
       1.257845 1.3063486 1.2696999 -0.5278832
000330 e3 32 a3 3f 56 89 ba 40 04 e3 03 3f a2 1d 09 3f
       1.2749904 5.8292646 0.51518273 0.5356084
000340 3b 61 08 bf 79 9c a2 3f ac 90 78 3b c3 bd a0 bf
       -0.5327336 1.2704002 0.0037928028 -1.2557911
000350 aa 44 d6 bc d8 30 34 40 24 81 08 bf 81 30 08 40
       -0.026155788 2.8154812 -0.5332205 2.1279604
000360 05 72 d6 40 aa d9 2e 40 3d b5 4b 40 1d 9c 2a 3f
       6.7014184 2.7320352 3.182937 0.6664446
000370 b6 75 84 be 49 5d 15 3f f5 36 30 3f 90 e3 a8 3f
       -0.25871056 0.58345467 0.6883386 1.3194447
000380 b9 c7 97 3f 54 b4 3a bc 6f 03 84 bf cb 3b 21 bf
       1.1857826 -0.011395533 -1.0313548 -0.6298186
000390 ad fb 83 3e bf 45 9e bc 2c 50 4a bc 95 71 30 3f
       0.2577795 -0.019320367 -0.012348216 0.6892331
0003a0 57 8e cb bf d3 ea 1e 3f a5 8c 30 40 d9 f8 9d 3f
       -1.5902814 0.62077063 2.7585843 1.2341567
0003b0 15 7a b4 3f 4c 95 27 bf fe eb 34 bf ea 41 39 40
       1.4099756 -0.65462184 -0.70672596 2.894648
0003c0 51 98 bd 3d 71 d4 ad bf 79 b8 af bf 78 d7 0e bf
       0.09257568 -1.3580457 -1.3728172 -0.5579753
0003d0 9a a1 a9 3e d9 87 d6 40 b3 51 e5 bf 2d 83 96 3f
       0.33131105 6.704083 -1.7915558 1.1758782
0003e0 11 e0 dd bf 0d 8c 58 40 f9 fa 1f bf 08 4d 8a bc
       -1.7334005 3.383548 -0.6249233 -0.016882434
0003f0 ee 97 31 3d 9b 0b 09 bf 2f 45 84 40 31 e4 06 be
       0.043357782 -0.53533334 4.1334453 -0.13172986

l1.bias f4 [8]
000000 6c 30 42 bd 06 04 6b be 44 64 1f 3e 9a 3f 4c 3e
       -0.04740946 -0.22950754 0.15565592 0.19946137
000010 b8 20 9d 3e f0 49 52 3e ae ef 53 3e bc 0b 13 3f
       0.30689025 0.20536017 0.206969 0.5743978

l2.weight f4 [8, 8]
000000 9b 3b 85 3f be 92 e6 3f 05 25 88 3f 69 59 f9 bf
       1.0408815 1.8013532 1.0636297 -1.9480411
000010 9b be 2a 3f 18 d0 e7 bd 89 f3 06 c0 9d 54 3e 3f
       0.6669709 -0.113189876 -2.1086142 0.7434786
000020 b2 c2 96 be 21 84 1a c0 3e 0b 08 3e ef 38 21 bf
       -0.29445416 -2.4143145 0.13285539 -0.629775
000030 42 ee 80 be ce 23 bf 3f 6d bf 39 3f ab 2b 91 bd
       -0.25181776 1.4932802 0.7255772 -0.07088407
000040 b9 5a 48 bf 16 a7 7d bf 14 b3 9f bf bf 98 9b bf
       -0.7826343 -0.9908308 -1.2476525 -1.215599
000050 6f 4c 07 bd 44 2d ed 3f 31 3f 3e 3e d0 20 bc 3f
       -0.033031877 1.8529439 0.18578793 1.4697514
000060 30 64 74 bf ef e4 15 3c 93 fc 1f bf 7f 81 85 3e
       -0.95465374 0.00914882 -0.6249477 0.2607536
000070 1c 97 05 40 7d a0 aa bf 22 84 4f 3e 45 04 90 3f
       2.087348 -1.3330227 0.20265248 1.1251303
000080 03 22 2e bf 49 3f 3a 3f 80 d3 44 3f b0 38 9c 3f
       -0.6802065 0.72752815 0.76885223 1.22048
000090 16 09 27 3e 3a 03 c3 bf 08 b4 c4 3f d2 9e 68 bf
       0.1631206 -1.523536 1.5367441 -0.9086734
0000a0 c9 bf fb 3d 5a 8d 06 3f 8b e7 86 bf e2 6d f0 3f
       0.122924395 0.52559435 -1.0539411 1.8783534
0000b0 3e 9e 88 be 53 e6 8d 3f 7e 1b 83 3d 3b d2 de 3d
       -0.2668323 1.1085914 0.06401728 0.10879942
0000c0 17 ba fb 3f b3 a9 4c 3f 2a 3f e4 be b2 60 c5 bf
       1.9666165 0.7994644 -0.4457944 -1.5420134
0000d0 5c 90 83 bf 2c a7 71 3f d1 b2 8c 3f 80 76 10 bf
       -1.027843 0.9439571 1.099207 -0.56430817
0000e0 6f 4b 9a 3f fd 20 cd bf 05 21 a3 3f 7d 3c 0b 3f
       1.205427 -1.6025692 1.2744452 0.5438917
0000f0 58 77 01 c0 9b e1 71 bf 27 9f 2c bf b4 f5 28 3f
       -2.0229092 -0.9448487 -0.6743035 0.65999913

l2.bias f4 [8]
000000 61 65 83 3e 49 0f 0b be a0 53 c1 3e 93 63 8f 3e
       0.25663283 -0.1358005 0.37759113 0.28005657
000010 8a d4 0a 3f 7e 6e 8e be 1f 88 04 be f8 dc 06 3e
       0.5423056 -0.27818674 -0.12942551 0.1317023

l3.weight f4 [98, 8]
000000 ba 38 ac bf a4 5b b1 c0 77 a7 b4 c0 41 37 03 c1
       -1.3454812 -5.5424366 -5.6454425 -8.20099
000010 da 61 59 c0 97 8f aa bf 00 20 fb 3e 0a 74 ed c0
       -3.3965974 -1.332507 0.49047852 -7.420415
000020 99 2b 75 c0 d1 31 d6 c0 f2 7c 87 c0 fe b6 0a c1
       -3.830786 -6.693581 -4.234002 -8.669676
000030 95 15 d0 bf 9b d4 09 c0 55 59 8b 3e 0e aa 03 c1
       -1.6256586 -2.1536014 0.27216592 -8.229017
000040 e5 34 46 bf 81 90 cb c0 ed 77 11 c1 e7 27 9b c0
       -0.7742446 -6.3613896 -9.091779 -4.848621
000050 6b b6 8c bf 26 a6 eb c0 ac 87 23 c0 cf aa 92 c0
       -1.099317 -7.364032 -2.5551558 -4.5833507
000060 da 47 c0 c0 98 73 c3 3f 6e 48 df c0 bf d0 6f c0
       -6.008771 1.5269651 -6.9775915 -3.7471159
000070 07 36 8d bf c2 16 3d c0 44 ca b4 c0 6f 0d d7 c0
       -1.1032113 -2.954514 -5.6496906 -6.72039
000080 4f 0d 29 c1 f7 44 5e c0 02 1a 02 c1 d5 ca 2b 40
       -10.565749 -3.4729593 -8.13135 2.684255
000090 5b 56 e5 bf 82 18 31 c0 f6 6f b2 c0 e9 db da c0
       -1.7916979 -2.7671208 -5.576167 -6.8393445
0000a0 a7 60 5f 3f 87 e7 48 3f 40 3b fb c0 90 52 13 c1
       0.87256855 0.7847828 -7.8509827 -9.207657
0000b0 7a d5 15 c0 39 e1 a6 c0 75 7c 03 c0 bb 2a eb c0
       -2.3411546 -5.214993 -2.0544713 -7.348966
0000c0 5a 7d 37 bf a6 a0 fb c0 81 6a bf bf 52 6c 81 c0
       -0.71675646 -7.8633604 -1.4954377 -4.0444727
0000d0 91 31 fd c0 f7 71 24 c0 cf aa 42 3f d3 f0 a7 c0
       -7.9123006 -2.5694559 0.76041883 -5.2481475
0000e0 19 31 3b c0 a3 fe 07 c0 64 51 ae c0 8c 8b b8 bf
       -2.9248717 -2.1249168 -5.4474354 -1.4417586
0000f0 90 16 a2 c0 69 5c 19 c1 19 2b 9b 3f 89 fb 89 c0
       -5.065254 -9.585061 1.2122527 -4.311955
000100 59 95 1f c0 63 30 6d c0 96 4c 0e c0 c5 db a7 c0
       -2.4934905 -3.7060783 -2.2234244 -5.2455773
000110 ee ec 27 3e d0 49 5c c0 92 de 44 c0 9e 5f d0 c0
       0.16398975 -3.4420052 -3.0760846 -6.511672
000120 68 be 1f c0 64 5f 1f c1 ad 7e ab c0 e8 bd 9a bf
       -2.4959965 -9.960789 -5.3592134 -1.2089205
000130 41 29 b9 c0 a7 74 83 be 78 8c c6 c0 85 77 2f bc
       -5.786286 -0.25674936 -6.204647 -0.010709648
000140 4a fd 58 c0 ec c1 4e be 1c 1b 7c 3e fb 53 a4 c1
       -3.3904595 -0.20191163 0.24619716 -20.541006
000150 a7 59 c5 c0 a8 80 33 3e d6 27 ef 3e fb 0a c2 c0
       -6.167194 0.17529547 0.4671008 -6.0638404
000160 3f b3 33 c0 a3 ba 1c be 04 b0 99 3c de 1d b3 c1
       -2.8078153 -0.15305571 0.018760689 -22.389584
000170 d3 c1 eb c0 bd cd 0b bd 70 c2 e4 3e eb d9 ec c0
       -7.36741 -0.034131754 0.44679594 -7.4016013
000180 48 42 de c0 2d 07 8b bf 01 f5 f9 bf f1 f9 30 c0
       -6.945591 -1.0861565 -1.9527894 -2.7652552
000190 76 97 f3 c0 f8 df a6 c0 b5 0d fb be b0 20 9f bf
       -7.612239 -5.21484 -0.49033895 -1.243185
0001a0 df a9 d0 bf a6 9b b2 c0 48 07 60 c0 d9 30 44 c0
       -1.630184 -5.5815 -3.5004444 -3.0654814
0001b0 e0 0f 90 c0 4e 4c 55 c0 13 d2 cc 3d 6f 85 38 c0
       -4.501938 -3.3327823 0.10001006 -2.8831441
0001c0 84 82 a7 bf b6 f2 e7 c0 02 72 b3 c0 31 38 06 c1
       -1.3086705 -7.248378 -5.607667 -8.388719
0001d0 24 29 4d c0 a4 3a c9 bf 6c d5 fb c0 23 b5 da 3e
       -3.205636 -1.5721021 -7.8698025 0.4271632
0001e0 88 37 62 bf 07 8e 1f c0 55 c6 09 c0 2e 2d 01 c1
       -0.88365984 -2.4930437 -2.1527302 -8.07353
0001f0 33 49 94 c0 04 ed ac c0 eb 76 94 3e 01 d8 2b c0
       -4.6339355 -5.4039326 0.28996977 -2.6850588
000200 13 41 8c c0 c7 0e 2d c1 68 0b fe bd 94 a3 d9 c0
       -4.3829436 -10.816108 -0.12404519 -6.801218
000210 1b 70 3e c0 cf 01 33 be 02 bd 94 c0 be 24 12 c0
       -2.9755924 -0.17481159 -4.6480722 -2.2834926
000220 5c e4 4c c0 08 2a cf c0 58 a8 df c0 ab a8 33 c0
       -3.201438 -6.473881 -6.9893 -2.8071697
000230 d5 42 ea c0 d7 87 74 3d 37 52 a2 3f 03 c6 21 c0
       -7.320658 0.05969986 1.268134 -2.5277107
000240 ad 2d c2 c0 f6 17 a1 be 68 95 22 bf c8 f0 1f c1
       -6.0680757 -0.31463593 -0.63509226 -9.9962845
000250 ae aa 86 c0 42 d7 2e c1 bb 42 1a c0 07 09 e3 bf
       -4.208335 -10.927553 -2.410323 -1.773713
000260 7f cf e9 bd 61 56 db c1 58 81 d9 bf 1f 79 e0 3e
       -0.1141653 -27.417177 -1.6992598 0.43842408
000270 13 d3 7a 3d 88 39 91 3c a7 bc 9b c0 c5 9c bf c1
       0.061236452 0.017727628 -4.866779 -23.951548
000280 7e 0d dc bd 0d b3 d9 c1 05 57 e6 bf 00 10 e6 3e
       -0.10744761 -27.212427 -1.7995306 0.44934082
000290 4b d4 50 3d cc b4 17 3d 06 92 9b c0 5d d9 c0 c1
       0.05098371 0.037037656 -4.861575 -24.106134
0002a0 16 b5 86 3e 8f 35 f4 bf 71 4d 5b c0 d9 31 82 c0
       0.26310033 -1.9078845 -3.4266016 -4.068585
0002b0 ce 8c fd c0 ed e6 9a c0 5e 5f 6a bd 71 1f 9f c0
       -7.923438 -4.840689 -0.057219855 -4.972588
0002c0 88 17 90 c0 f3 d7 03 3f 7d e7 8a c0 b0 6a 73 c0
       -4.5028725 0.5150139 -4.340758 -3.8033867
0002d0 1a 02 37 c0 40 a1 f0 c0 79 45 69 bf 32 37 ff c0
       -2.8595033 -7.519684 -0.9112163 -7.9754877
0002e0 4e c8 84 c0 a6 2b 1a c1 27 63 11 c0 39 8b c0 bf
       -4.1494513 -9.635656 -2.2716768 -1.5042487
0002f0 74 1f 3d c1 a3 97 6b 3f 4b e5 bb bf 15 37 92 bb
       -11.820179 0.92028254 -1.467935 -0.0044621327
000300 1e 5a ae bf 29 43 e2 c0 69 ab 71 c0 30 75 b8 c0
       -1.3621252 -7.0706983 -3.776087 -5.764305
000310 eb bb 1c c1 03 7f 86 c0 c6 28 22 40 be 0a f3 bf
       -9.795878 -4.2030044 2.5337386 -1.8987653
000320 b2 d1 e7 c0 7f ae 94 3f 64 5d 75 3f cc 3f 49 c0
       -7.2443476 1.1615752 0.9584563 -3.1445189
000330 ce 63 5d c1 ae 8b 65 c0 55 15 43 c0 31 f7 0c c1
       -13.836866 -3.5866504 -3.048177 -8.810349
000340 f7 69 14 c0 ab 0a 85 3f 40 fe 29 c0 9a 0b 33 c1
       -2.3189676 1.0393881 -2.6561432 -11.190332
000350 d8 07 31 c1 2b 39 9c c0 04 bf 7e 3f f1 a1 bc bf
       -11.064415 -4.8819785 0.99510217 -1.473692
000360 e8 c5 b5 be 0c df 2f 40 bd 1a 2a bf 2c fc e4 c0
       -0.35502553 2.7479887 -0.6644705 -7.1557827
000370 59 7e 1b c1 98 27 35 c1 c6 c9 03 c1 4b 88 03 c0
       -9.718347 -11.322166 -8.236761 -2.0551937
000380 7a 37 bf 3e 28 d1 3b c0 1f 2a bc bf 04 a0 55 3d
       0.37347013 -2.934641 -1.4700354 0.052154556
000390 02 60 b8 c0 11 57 cc c1 b1 8a 6c bf b5 34 93 3e
       -5.7617197 -25.542513 -0.92399126 0.2875115
0003a0 a2 11 05 3f 48 e0 3b c0 ca e0 b5 bf 45 65 c2 3d
       0.5198003 -2.935564 -1.4209225 0.09491972
0003b0 b2 5b ba c0 6d f7 cf c1 32 77 84 bf f4 1d d4 3e
       -5.8236933 -25.995813 -1.0348876 0.41429102
0003c0 b6 f3 2f c1 8f bd 37 c0 34 42 32 c0 55 c6 c5 c0
       -10.997 -2.8709447 -2.7852907 -6.1804605
0003d0 ff 3f 7c c0 be ee e4 bf 59 29 3a be b5 eb f0 be
       -3.941406 -1.7885358 -0.18179835 -0.4705483
0003e0 c5 0c ff c0 0e 47 18 c1 58 64 3f c0 e4 4f bf 3f
       -7.970309 -9.517347 -2.9904995 1.4946256
0003f0 d1 86 6d c0 f8 49 ed bf 3c bd d7 c0 a7 a6 96 3f
       -3.7113535 -1.8538198 -6.74185 1.1769608

l3.bias f4 [98]
000000 87 39 fb c0 a5 15 03 c1 a2 1d d3 c0 b3 4e 12 c1
       -7.8507724 -8.192784 -6.5973673 -9.144214
000010 25 84 ef c0 32 ae e4 c0 5c c9 f2 c0 6c d4 da c0
       -7.484881 -7.146264 -7.58708 -6.8384304
000020 90 1b 26 c1 07 2d 20 c1 42 68 32 3c 21 12 8b be
       -10.381729 -10.010993 0.010889115 -0.2716227
000030 96 7f 12 c1 b3 e0 1b c1 75 2f 25 c1 19 e7 10 c1
       -9.156149 -9.742358 -10.324086 -9.05642
000040 3d 29 32 c1 6b f1 0b c1 f8 98 db c0 f1 93 25 3e
       -11.135068 -8.74644 -6.862423 0.16169716
000050 7a a9 0c 3e 29 bb f9 c0 c0 44 ee c0 2c 47 2b c1
       0.13736525 -7.8040967 -7.4458923 -10.704876
000060 1c f0 c4 c0 4a 57 e8 c0 9d db ed c0 d1 37 fb c0
       -6.15431 -7.2606554 -7.4330583 -7.8505635
000070 d1 61 86 be 6b 9e ca 3e 77 11 0c c1 f3 fc 33 c1
       -0.26246503 0.39573988 -8.754264 -11.249255
000080 36 10 05 c1 a2 56 07 c1 d3 ce e5 c0 1e f6 0a c1
       -8.316458 -8.458651 -7.181497 -8.685087
000090 b7 72 cf c0 9d 41 d1 c0 36 51 15 c1 21 68 07 c1
       -6.4827533 -6.5392594 -9.332327 -8.462922
0000a0 ce d3 e3 c0 be c9 d8 c0 cd 90 0c c1 92 02 27 c1
       -7.119605 -6.7746267 -8.785352 -10.4381275
0000b0 5b 2f f3 c0 69 19 0a c1 97 cc 9a c0 4f 92 cc c0
       -7.5995307 -8.631204 -4.8374743 -6.39286
0000c0 80 be 20 c1 f3 52 f7 c0 62 60 2d c1 63 cb 14 c1
       -10.046509 -7.7288756 -10.836031 -9.299655
0000d0 4e e8 43 c1 21 82 a6 be 45 75 82 be f1 2b c2 c0
       -12.244215 -0.32521155 -0.25480095 -6.067864
0000e0 70 7d 84 c0 ab d0 20 c1 34 3d c8 c0 87 7e 62 3e
       -4.140312 -10.050944 -6.257471 0.22118579
0000f0 50 66 82 3e 58 19 c4 c0 d6 b9 09 c1 4f eb 21 3e
       0.25468683 -6.1280937 -8.60787 0.1581242
000100 b1 c3 05 bf ad c2 cf c0 f4 f6 e0 3e c6 d8 50 3e
       -0.52251726 -6.492514 0.4393841 0.20395193
000110 49 53 d1 c0 ac 23 05 c0 66 54 bb c0 34 41 cd c0
       -6.5414166 -2.0803022 -5.8540525 -6.4142094
000120 77 4a f9 c0 54 bc 28 c1 4a 9d 49 be 20 69 03 c0
       -7.79034 -10.545979 -0.19688907 -2.0532913
000130 56 0c fc 3d ac f1 24 c1 b7 d1 2c c1 39 41 a2 c0
       0.123070404 -10.309002 -10.8012 -5.0704618
000140 41 eb be c0 36 72 37 c1 df 52 0b c1 f4 ac 39 c1
       -5.9662175 -11.465384 -8.707732 -11.604725
000150 bb b7 05 c1 b3 ef 11 c1 c1 a1 0a c1 32 ed 17 c1
       -8.357356 -9.12102 -8.664491 -9.495409
000160 82 aa c5 c0 c9 ed 1d c1 76 d2 3e c1 f6 a7 2a c1
       -6.177064 -9.870553 -11.926382 -10.666006
000170 4d 49 33 c1 4d 4c 0c c1 f8 a1 34 c1 0c fa 27 c1
       -11.205396 -8.768628 -11.289543 -10.498547
000180 be de e9 c0 19 ae 45 c1
       -7.30844 -12.355004
