data.pth (torch, 16447 bytes, 6 tensors)

l1.weight f4 [8, 200]
-0.03285155 0.6104169 -0.18679085 -0.09182378 1.3239446 0.03466722 0.2943229 0.20057003
-0.3226481 0.23564534 0.07941973 -0.31874096 0.46646723 -0.1115906 -0.3825853 0.14712304
3.9111705 0.5081824 0.4057798 0.44262102 0.19997178 -0.3857954 0.52136123 -0.34165245
-0.38431317 0.64480036 5.169095 0.63154674 0.43274006 1.5713134 1.7394079 1.0236634
1.7058314 -0.17469227 0.053014275 6.3796034 2.5548956 6.636053 1.7917545 -0.34124747
3.0672266 0.081898764 5.2373676 -0.3251081 -0.34201208 -0.8607172 3.8492308 -0.5591811
0.19982462 0.069566146 0.45204633 1.062336 0.33216378 3.3096647 0.28165963 -0.898191
0.13789266 0.6807918 0.6857833 2.8421028 0.13816531 4.466856 0.41723853 -0.06070105
-0.3053862 2.7989557 0.17605259 0.13634957 -0.438967 4.7457504 0.51261914 -0.4240269
0.43602774 0.49601623 1.5458711 5.5081444 0.13993278 0.21584035 0.052356783 1.1791087
0.5521509 0.25596574 -0.33072537 -1.5060374 1.809691 3.2862704 1.2638866 -0.36285067
1.4825925 3.2555196 1.3533162 1.4515492 4.4925504 0.16462786 0.16357633 0.18272176
0.19456345 -0.33632708 6.9580135 0.20613475 0.50848836 3.643197 0.48756018 0.09577923
0.15544894 1.4520688 0.39858523 0.41562513 0.42464593 0.19999754 2.2115932 2.770327
0.33423167 -0.32858557 0.2532939 1.5304291 0.27750978 3.5864882 0.39444733 0.13286993
-0.035904426 0.48816937 2.8233826 0.46750286 0.46461228 0.42919722 0.34879383 3.2244189
0.18963434 0.45374522 0.41353175 2.8325093 0.17659132 1.5217942 -0.37450105 0.48194662
-0.4898289 3.925676 -0.335925 4.645564 0.44962594 4.084387 -1.0048286 1.789566
0.22565386 0.6250376 -0.363315 3.9975271 0.25203195 3.7680287 4.141757 0.6757464
4.6014223 -1.458626 -0.8271013 -0.14090315 2.92276 -0.34740502 0.34851095 1.5404531
1.8368139 1.5437483 0.29999682 0.3822444 -0.08174219 0.40862688 -0.4185757 4.8735332
2.7531545 3.0125983 -0.09996802 4.2168775 0.50500405 -0.07888414 0.41550606 1.8735892
3.0319273 0.17017363 0.71022564 0.24527848 0.08471948 0.4357696 -0.37511042 0.21199124
0.5515268 0.18010692 3.2174523 3.7158437 0.26697782 0.16745758 0.24985312 0.09966081
1.3703698 0.15683025 0.20114453 2.8552492 0.4881185 0.21013016 3.306491 3.9396005
-0.44381365 -0.2393517 -0.051030595 -0.026236666 2.6197357 0.39416248 0.17327324 -0.072088525
0.021535905 -0.0030988574 0.36997524 0.14893337 0.39195275 -0.025162984 0.11332039 0.11626567
-1.3873733 0.34029594 0.42149422 -0.12467657 -0.07860717 0.08773002 0.19765738 0.082810424
0.07491146 1.7275739 -1.389185 -0.2698096 0.28420764 -0.4980192 1.1457909 6.4472322
1.0712405 -0.036620677 0.034896284 1.3751328 -1.1749913 -1.3898164 1.1397552 -0.031950418
4.834763 0.042159036 0.8633859 0.105079226 0.06971308 -0.44217855 0.6790005 -0.6718387
-0.08919683 -0.34434137 -0.17516774 1.0532976 -0.0031848801 0.43130192 0.16908912 -2.0810742
00000000: 598f 06bd 4844 1c3f 1a46 3fbe 1b0e bcbd
00000010: 0477 a93f 37ff 0d3d 7eb1 963e 3b62 4d3e
00000020: 2232 a5be 034d 713e d0a6 a23d 0432 a3be
00000030: cbd4 ee3e 9d89 e4bd 38e2 c3be 6ca7 163e
00000040: 9e50 7a40 3e18 023f 5fc2 cf3e 399f e23e
00000050: 67c5 4c3e fa86 c5be ee77 053f 12ed aebe
00000060: b2c4 c4be a311 253f 3a69 a540 0cad 213f
00000070: 1b90 dd3e cc20 c93f eba4 de3f 6707 833f
00000080: af58 da3f 88e2 32be 7f25 593d b625 cc40
00000090: 6983 2340 8c5a d440 3658 e53f fdb7 aebe
000000a0: 714d 4440 8aba a73d 8498 a740 9274 a6be
000000b0: 351c afbe f657 5cbf cc59 7640 7e26 0fbf
000000c0: d39e 4c3e b278 8e3d 9e72 e73e a0fa 873f
000000d0: 5f11 aa3e 8cd1 5340 b135 903e d8ef 65bf
000000e0: bc33 0d3e 5f48 2e3f 7f8f 2f3f 03e5 3540
000000f0: 357b 0d3e 7cf0 8e40 4aa0 d53e aaa1 78bd
00000100: 945b 9cbe 1722 3340 2147 343e 399f 0b3e
00000110: 48c0 e0be 30dd 9740 023b 033f 0e1a d9be
00000120: 073f df3e d7f5 fd3e 1bdf c53f b842 b040
00000130: 8a4a 0f3e 4105 5d3e 1174 563d 09ed 963f
00000140: c359 0d3f f10d 833e d654 a9be d5c5 c0bf
00000150: f4a3 e73f 4152 5240 09c7 a13f 90c7 b9be
00000160: 97c5 bd3f 6f5a 5040 7739 ad3f 5dcc b93f
00000170: f9c2 8f40 3594 283e 8e80 273e 6a1b 3b3e
00000180: a43b 473e 1033 acbe 0ca8 de40 fd14 533e
00000190: 4b2c 023f 242a 6940 7da1 f93e e727 c43d
000001a0: 022e 1f3e 64dd b93f 5d13 cc3e d1cc d43e
000001b0: 316b d93e 28cc 4c3e be8a 0d40 0a4d 3140
000001c0: 6a20 ab3e 5e3c a8be bdaf 813e 1ae5 c33f
000001d0: c315 8e3e 0689 6540 00f5 c93e 0e0f 083e
000001e0: 8510 13bd 56f1 f93e 4db2 3440 895c ef3e
000001f0: a9e1 ed3e bdbf db3e 1b95 b23e e15c 4e40
00000200: 812f 423e 4b51 e83e 6fba d33e d547 3540
00000210: 5bd4 343e 27ca c23f 9abe bfbe b5c1 f63e
00000220: dbca fabe 473e 7b40 5dfe abbe 76a8 9440
00000230: 5f35 e63e 4cb3 8240 399e 80bf 8010 e53f
00000240: ce11 673e 7702 203f 6c04 babe 7cd7 7f40
00000250: 550a 813e 6227 7140 4689 8440 b7fd 2c3f
00000260: da3e 9340 42b4 babf e9bc 53bf ea48 10be
00000270: 800e 3b40 12df b1be 0770 b23e 912d c53f
00000280: b81c eb3f 8b99 c53f 2f99 993e 8ab5 c33e
00000290: 7368 a7bd 8b37 d13e 8e4f d6be fcf3 9b40
000002a0: af33 3040 69ce 4040 09bc ccbd a9f0 8640
000002b0: f247 013f 028e a1bd 36bd d43e c5d1 ef3f
000002c0: 190b 4240 ff41 2e3e 59d1 353f 482a 7b3e
000002d0: 6881 ad3d 311d df3e 790e c0be 3b14 593e
000002e0: dc30 0d3f f36d 383e bdea 4d40 62d0 6d40
000002f0: 51b1 883e 007a 2b3e 7fd9 7f3e f71a cc3d
00000300: 4768 af3f 1c98 203e d5f8 4d3e 67bc 3640
00000310: abea f93e 5c2c 573e 8c9d 5340 6a22 7c40
00000320: 8b3b e3be 9d18 75be 7505 51bd 47ee d6bc
00000330: c0a9 2740 aacf c93e 8a6e 313e 26a3 93bd
00000340: 116c b03c 3316 4bbb 656d bd3e fd81 183e
00000350: 08ae c83e 9a22 cebc 8514 e83d b21c ee3d
00000360: 7395 b1bf 453b ae3e 17ce d73e 6e56 ffbd
00000370: ccfc a0bd ccab b33d b266 4a3e 8398 a93d
00000380: 2e6b 993d 2421 dd3f d0d0 b1bf 7c24 8abe
00000390: aa83 913e 5ffc febe 47a9 923f ba4f ce40
000003a0: 691e 893f 90ff 15bd 68ef 0e3d 5a04 b03f
000003b0: 1d66 96bf 81e5 b1bf 80e3 913f 71de 02bd
000003c0: 61b6 9a40 f4ae 2c3d dc06 5d3f c733 d73d
000003d0: bbc5 8e3d 3a65 e2be fad2 2d3f 9ffd 2bbf
000003e0: d4ac b6bd 834d b0be 2c5f 33be 75d2 863f
000003f0: 6cb9 50bb 9bd3 dc3e b325 2d3e 5230 05c0

l1.bias f4 [8]
0.40636578 0.31569162 0.26100528 0.41268027 -0.046065442 -0.13674118 0.12743588 0.38683015
00000000: 2d0f d03e 55a2 a13e 7ca2 853e d44a d33e
00000010: 1eaf 3cbd e105 0cbe 8d7e 023e 9a0e c63e

l2.weight f4 [8, 8]
-1.4694842 0.9362036 2.056442 1.2732967 -1.3622494 0.974243 0.57367045 0.44126913
-0.19490252 -0.3845534 -0.51237977 -0.74683774 -0.005511731 -0.23795316 1.7288464 1.8644024
-0.37098658 -1.1433212 1.0859193 1.1748695 -0.31998265 0.95091295 0.12948996 0.5947962
1.593259 1.0746582 -1.4175663 1.2969699 -0.6713846 -0.20980087 -0.5732908 0.13006347
-0.38323233 -1.5986094 -1.5878673 -0.65168697 1.4794679 1.2655909 0.0557556 0.96444446
1.6502782 1.4680153 -0.24943265 -0.41713804 0.81864506 -2.8135154 1.274004 -0.92093813
-0.17224328 -0.21749164 -0.66931766 -0.48721182 1.3515848 1.4559149 0.09073494 0.26027003
0.9649954 -1.5972984 -0.57831824 1.418636 -0.92978984 -1.1996251 0.19983554 1.294695
00000000: 0f18 bcbf 0aab 6f3f bf9c 0340 63fb a23f
00000010: 305e aebf fd67 793f 11dc 123f 07ee e13e
00000020: 8794 47be 2fe4 c4be 522b 03bf c230 3fbf
00000030: c09b b4bb fea9 73be d74a dd3f bda4 ee3f
00000040: f4f1 bdbe 5958 92bf 67ff 8a3f 2062 963f
00000050: c4d4 a3be 086f 733f 0499 043e 9044 183f
00000060: e9ef cb3f 668e 893f d072 b5bf 1c03 a63f
00000070: dcdf 2bbf 0ad6 56be 30c3 12bf 5c2f 053e
00000080: 0737 c4be 3c9f ccbf 3c3f cbbf f5d4 26bf
00000090: 345f bd3f e2fe a13f fc5f 643d d5e5 763f
000000a0: 513c d33f ede7 bb3f 466b 7fbe 1e93 d5be
000000b0: b992 513f a310 34c0 9012 a33f 9ac2 6bbf
000000c0: 8b60 30be 21b6 5ebe 6758 2bbf d473 f9be
000000d0: bb00 ad3f 6b5b ba3f 3dd3 b93d 1d42 853e
000000e0: f009 773f 4674 ccbf aa0c 14bf dd95 b53f
000000f0: b506 6ebf 518d 99bf b0a1 4c3e 91b8 a53f

l2.bias f4 [8]
-0.14245957 0.04824987 0.06455242 0.0002848885 0.39569446 0.5890866 -0.2727379 0.46311665
00000000: ece0 11be a8a1 453d 0f34 843d 165d 9539
00000010: 7798 ca3e 61ce 163f 4da4 8bbe a01d ed3e

l3.weight f4 [65, 8]
-5.2563024 0.31841946 -5.076091 -10.389741 -5.694106 -0.66524273 -6.6613617 2.459983
-0.35244086 -7.1884637 -4.090391 2.0928721 -4.2227907 -3.485381 -1.7855684 -6.210708
-7.233911 0.5094457 -15.038432 -10.349547 1.01016 -1.8312136 1.3907591 -3.404383
-1.3186325 1.0843583 -4.381385 -1.341153 -3.2154112 -1.7072194 -4.8315554 -3.1953826
0.10063869 -8.246372 1.0020963 -8.95689 0.11819285 -6.624768 1.6268157 -8.313346
-0.87114215 -0.5212716 0.20742263 -3.3821716 -5.730136 -7.1232877 -7.0132294 1.0919363
-1.5548966 0.6683157 0.09773103 -3.8271956 -7.0909753 -3.164003 -7.6680155 1.05155
-11.983607 1.2291012 -10.204303 -6.3710756 -1.4963561 -2.8390214 -5.1653886 1.5160406
-5.5289755 -11.139165 -19.57169 0.3680939 -13.008321 0.3472431 -1.5197955 0.32031077
-5.775176 -10.793698 -18.954386 0.39021206 -13.850365 0.2949383 -1.309973 0.2904704
-1.6769062 -0.5537236 -3.4560099 -3.6018865 -4.7330275 -1.312703 -1.9527081 0.16113889
-4.722871 -8.189314 -4.571688 0.62318516 -2.9507778 -1.9645135 1.6399325 -8.101487
-0.11142485 -10.405105 -7.41745 -0.5988184 -4.339689 0.45787206 -3.5949326 -9.104225
-4.772341 -11.168283 1.462556 -3.3989275 -0.14547697 -2.5804818 2.5101442 -8.52994
-8.939334 -5.7351665 -2.17078 -3.185252 1.0797834 -2.174933 2.2109458 -5.5754085
0.23739927 -3.6388872 0.030855063 -1.1906534 -6.477029 -0.7766234 -0.27135122 -0.20264722
0.24864927 -3.5315268 -0.02472438 -1.2044088 -6.2746816 -0.7957341 -0.28091756 -0.18604419
-1.5075227 1.1621047 -8.951481 -5.468545 -7.2476535 -1.836137 -9.823229 0.7517338
-2.4442208 -0.7871167 -0.10805356 0.22913702 -0.19119567 -1.0222616 -24.44474 0.33245757
-2.1719353 -0.776581 -0.11056331 0.16242488 -0.22694215 -0.9700478 -24.446877 0.40551344
-0.43517524 -10.593091 -3.4200587 -2.1092513 -3.6380756 1.0285268 -6.7936907 -8.454466
-2.5063524 -0.3294123 -0.25492117 -9.128647 0.984777 -8.606589 1.5778154 -11.462892
-1.2327634 -0.87586945 -1.4676558 -5.0308013 -5.3145666 -0.25208515 -9.048733 -0.23435095
-0.031942487 0.14742246 -0.3406766 -22.569067 0.38345498 -1.5222754 -0.080292955 -0.036355518
-0.21141592 0.16072227 -0.05865876 -20.350456 0.19722341 -1.5335078 0.0040440513 -0.033097703
-0.19129342 -5.4784055 -0.41293192 1.3924155 -4.163213 -5.5702143 -7.2296576 -5.403331
-2.0504434 1.1850053 -11.03546 -2.009062 -2.6641648 -1.9349262 -6.9913106 -0.12893204
-6.646504 -4.8417788 -1.9916257 -4.8353376 -0.6701941 -0.7582974 1.2800647 -0.8686698
-0.601135 -10.01594 0.8592678 -0.7874053 -5.0805025 -9.060388 -10.643695 2.8286262
-2.6762745 0.4728914 0.32035077 -6.164934 -7.5424013 -1.9803135 -10.324242 1.409759
-7.05102 -0.6856765 -4.3700957 -6.911763 0.6494707 -1.4645729 0.6768311 -5.178371
0.048789315 -1.8186897 -2.502755 -0.5836334 -5.0845904 -0.3592517 -8.792915 -2.0742445
00000000: a133 a8c0 e007 a33e 566f a2c0 613c 26c1
00000010: 1e36 b6c0 594d 2abf e029 d5c0 5d70 1d40
00000020: 2173 b4be e507 e6c0 7ce4 82c0 9ef1 0540
00000030: 1a21 87c0 7b10 5fc0 818d e4bf 1fbe c6c0
00000040: 337c e7c0 096b 023f 6b9d 70c1 bf97 25c1
00000050: ec4c 813f 3565 eabf 6504 b23f 69e1 59c0
00000060: f3c8 a8bf 41cc 8a3f 4e34 8cc0 e7aa abbf
00000070: 4cc9 4dc0 2a86 dabf 1a9c 9ac0 2681 4cc0
00000080: a81b ce3d 24f1 03c1 b144 803f 6c4f 0fc1
00000090: 180f f23d 19fe d3c0 7f3b d03f 7703 05c1
000000a0: 2c03 5fbf 0e72 05bf 9966 543e 8075 58c0
000000b0: 465d b7c0 f9f1 e3c0 606c e0c0 92c4 8b3f
000000c0: da06 c7bf bd16 2b3f 3527 c83d c6f0 74c0
000000d0: 45e9 e2c0 067f 4ac0 6260 f5c0 3199 863f
000000e0: dbbc 3fc1 3053 9d3f d344 23c1 dadf cbc0
000000f0: 9988 bfbf 87b2 35c0 dd4a a5c0 9e0d c23f
00000100: 5eed b0c0 053a 32c1 d292 9cc1 ce76 bc3e
00000110: 1522 50c1 d9c9 b13e a988 c2bf c6ff a33e
00000120: 3ece b8c0 fdb2 2cc1 95a2 97c1 e0c9 c73e
00000130: 189b 5dc1 2702 973e 32ad a7bf 89b8 943e
00000140: dda4 d6bf d4c0 0dbf 442f 5dc0 4f85 66c0
00000150: f674 97c0 a706 a8bf 57f2 f9bf 9801 253e
00000160: c221 97c0 6e07 03c1 454b 92c0 1089 1f3f
00000170: 8bd9 3cc0 2e75 fbbf 4fe9 d13f b19f 01c1
00000180: b632 e4bd 4f7b 26c1 c05b edc0 2a4c 19bf
00000190: bbde 8ac0 356e ea3e 6013 66c0 e8aa 11c1
000001a0: 04b7 98c0 4ab1 32c1 0935 bb3f 0788 59c0
000001b0: eaf7 14be 9d26 25c0 34a6 2040 a27a 08c1
000001c0: 8307 0fc1 7c86 b7c0 0fee 0ac0 2bdb 4bc0
000001d0: 5836 8a3f 1a32 0bc0 2380 0d40 bf69 b2c0
000001e0: cb18 733e 87e3 68c0 c2c3 fc3c 5567 98bf
000001f0: d243 cfc0 cbd0 46bf 8cee 8abe c182 4fbe
00000200: ea9d 7e3e 8904 62c0 c88a cabc 112a 9abf
00000210: 31ca c8c0 3bb5 4bbf 6dd4 8fbe 5e82 3ebe
00000220: 81f6 c0bf d9bf 943f 4439 0fc1 52fe aec0
00000230: c7ec e7c0 8a06 ebbf f22b 1dc1 a071 403f
00000240: 1d6e 1cc0 7b80 49bf 2f4b ddbd e5a2 6a3e
00000250: ccc8 43be 78d9 82bf d48e c3c1 e137 aa3e
00000260: fd00 0bc0 03ce 46bf 046f e2bd b552 263e
00000270: 8663 68be 0d55 78bf 3493 c3c1 759f cf3e
00000280: 4acf debe 4d7d 29c1 3ee2 5ac0 f9fd 06c0
00000290: 3bd6 68c0 c4a6 833f ea65 d9c0 7e45 07c1
000002a0: 1468 20c0 bba8 a8be 0785 82be f00e 12c1
000002b0: 581a 7c3f 97b4 09c1 dbf5 c93f 0168 37c1
000002c0: 31cb 9dbf fb38 60bf 25dc bbbf 53fc a0c0
000002d0: ee10 aac0 4e11 81be 9cc7 10c1 b2f9 6fbe
000002e0: 20d6 02bd eaf5 163e 2a6d aebe 738d b4c1
000002f0: 3654 c43e ecd9 c2bf a270 a4bd 86e9 14bd
00000300: 6a7d 58be 6194 243e 2b44 70bd bccd a2c1
00000310: eff4 493e fc49 c4bf f683 843b 7591 07bd
00000320: 6ce2 43be 194f afc0 d06b d3be ac3a b23f
00000330: 0a39 85c0 323f b2c0 5b59 e7c0 16e8 acc0
00000340: 773a 03c0 41ae 973f 3f91 30c1 7994 00c0
00000350: ad81 2ac0 a9ab f7bf d1b8 dfc0 c306 04be
00000360: 29b0 d4c0 daef 9ac0 97ed febf 16bb 9ac0
00000370: d791 2bbf c71f 42bf 29d9 a33f 2561 5ebf
00000380: fce3 19bf 4a41 20c1 f9f8 5b3f 6593 49bf
00000390: 7a93 a2c0 59f7 10c1 934c 2ac1 3608 3540
000003a0: 1548 2bc0 d21e f23e 0405 a43e 2447 c5c0
000003b0: 5a5b f1c0 ea7a fdbf 1830 25c1 fc72 b43f
000003c0: f5a1 e1c0 7f88 2fbf d3d7 8bc0 2a2d ddc0
000003d0: b643 263f 2077 bbbf ce44 2d3f 37b5 a5c0
000003e0: 4ed7 473d d3ca e8bf 232d 20c0 0069 15bf
000003f0: f7b4 a2c0 d7ef b7be c8af 0cc1 6cc0 04c0

l3.bias f4 [65]
-7.6162395 -3.5789692 -8.488648 -10.621748 -3.6270545 -6.8332553 -6.151623 -7.653075
-0.07219401 0.19386663 -9.740818 -4.44199 -5.4876604 -4.452904 -8.486119 0.42415014
-0.1702515 -5.426298 -0.11687689 -0.24673776 -6.5567966 -6.55158 -8.862222 -0.26724362
-0.14779802 -3.7334945 -10.112636 -10.033337 -2.2653894 -5.931394 -8.985277 -8.911509
0.35973254 -7.0256567 -5.4191804 0.006704997 0.107674815 -6.448878 -7.894514 -7.005652
-0.36494693 -0.33507043 -10.445893 0.25035763 0.27469376 -4.9604487 -8.073156 -0.22860092
-0.15943713 -9.772018 -7.8016586 -4.818423 -5.1052766 -8.594736 -3.9601693 -8.687358
-5.6145997 -8.848771 -10.901722 -6.328768 -10.661595 -6.5711617 0.16547206 -8.791631
-9.299004
00000000: 3cb8 f3c0 d50d 65c0 81d1 07c1 aef2 29c1
00000010: a921 68c0 07aa dac0 18da c4c0 fee5 f4c0
00000020: 74da 93bd f984 463e 64da 1bc1 c824 8ec0
00000030: ea9a afc0 317e 8ec0 25c7 07c1 352a d93e
00000040: 6956 2ebe 3ca4 adc0 275d efbd d3a8 7cbe
00000050: 47d1 d1c0 8ba6 d1c0 a9cb 0dc1 28d4 88be
00000060: 5d58 17be 93f1 6ec0 5bcd 21c1 8c88 20c1
00000070: 24fc 10c0 fbcd bdc0 b2c3 0fc1 8a95 0ec1
00000080: dd2e b83e 2ed2 e0c0 ed69 adc0 97b5 db3b
00000090: 9d84 dc3d 355d cec0 dc9f fcc0 4d2e e0c0
000000a0: 53da babe 5a8e abbe 6122 27c1 e02e 803e
000000b0: a9a4 8c3e ffbb 9ec0 a62b 01c1 5c16 6abe
000000c0: 7d43 23be 305a 1cc1 30a7 f9c0 8530 9ac0
000000d0: 6d5e a3c0 0a84 09c1 6a73 7dc0 6bff 0ac1
000000e0: cdaa b3c0 9194 0dc1 746d 2ec1 4485 cac0
000000f0: e595 2ac1 f546 d2c0 8271 293e 85aa 0cc1
00000100: b8c8 14c1
